init_noises/initial_noise_512.safetensors (safetensors, 655556 bytes, 1 tensors)

Expectation_X0 f4 [1, 4, 16, 40, 64]
000000 4c 19 ab 3e 01 62 b0 3e 16 1b c1 3e 23 f6 be 3e
       0.33417737 0.3444977 0.37715977 0.37297162
000010 d5 f0 d7 3e 3c c0 ce 3e b3 f9 d6 3e a8 7f d9 3e
       0.42175928 0.40381038 0.4198738 0.42480206
000020 36 16 dd 3e ad 64 e4 3e 19 2c e0 3e ba d2 db 3e
       0.43181008 0.4460806 0.43783644 0.4293421
000030 92 6c de 3e 8b 70 e5 3e d6 65 e2 3e 07 b8 e6 3e
       0.43442208 0.44812426 0.4421832 0.45062277
000040 ee 41 e6 3e 9a 41 e3 3e 83 09 e5 3e f3 c6 e8 3e
       0.44972175 0.44385988 0.4473382 0.45464286
000050 df fc e8 3e 73 d4 f0 3e a2 ea f4 3e 83 a2 ef 3e
       0.45505425 0.47037086 0.4783526 0.46803674
000060 1a 64 f0 3e 5d 2a e9 3e 6b de f0 3e b4 1e ee 3e
       0.4695137 0.45540133 0.4704469 0.465078
000070 c4 73 f5 3e b2 26 f0 3e b7 3e f4 3e 21 2c ef 3e
       0.47939885 0.46904522 0.47704098 0.46713355
000080 fe fa f4 3e d7 9f f4 3e 94 df f6 3e ae 66 ee 3e
       0.47847742 0.47778198 0.48217452 0.46562713
000090 c5 ba f7 3e e5 8b ea 3e 1c 86 ee 3e e5 d8 ec 3e
       0.4838468 0.45809856 0.46586692 0.46259227
0000a0 45 96 ee 3e b0 cc ef 3e a8 32 ea 3e 4f d3 e9 3e
       0.46599022 0.46835852 0.45741773 0.45669028
0000b0 25 3d ef 3e 91 ab e9 3e 33 55 e7 3e 05 a3 ec 3e
       0.46726337 0.45638707 0.4518219 0.46218124
0000c0 6c 2a eb 3e f9 88 ee 3e 89 77 e5 3e 02 b8 e8 3e
       0.45930803 0.46588877 0.4481776 0.45452887
0000d0 56 b2 e2 3e eb 5a e6 3e d0 ef de 3e 6c 44 df 3e
       0.44276685 0.4499124 0.43542337 0.4360689
0000e0 fd 0c df 3e b2 85 d7 3e 93 c5 db 3e 67 b0 d6 3e
       0.43564597 0.4209419 0.42924175 0.4193146
0000f0 d3 95 d1 3e 47 53 d3 3e a3 c1 96 3e f8 2a 81 3e
       0.4093462 0.41274473 0.29444608 0.25228095
000100 e7 07 ba 3e 8d a5 c8 3e 90 24 d9 3e 2c 62 dc 3e
       0.36334154 0.39188805 0.42410707 0.4304365
000110 bf 72 e9 3e e5 dc ec 3e 7c f6 ef 3e 8c ea e9 3e
       0.45595357 0.4626228 0.4686774 0.45686758
000120 fb ed f2 3e bc 11 f2 3e fd e7 f1 3e 70 6d ee 3e
       0.4744719 0.47279155 0.47247306 0.4656787
000130 9d 4f f6 3e 4f 20 f1 3e f0 31 f1 3e cf 5e ed 3e
       0.48107615 0.47094962 0.47108412 0.46361396
000140 1d 2c fa 3e 15 03 f6 3e b3 fc f6 3e 41 29 fb 3e
       0.4886178 0.48049226 0.4823967 0.49054912
000150 4f 6d fc 3e 48 38 02 3f 4c 16 03 3f 69 35 fe 3e
       0.49302146 0.5086713 0.512059 0.49650124
000160 00 e9 00 3f e3 73 00 3f 82 11 00 3f 1b 5a fc 3e
       0.5035553 0.5017683 0.50026715 0.49287495
000170 18 36 ff 3e 98 62 03 3f 66 e2 00 3f f8 29 03 3f
       0.49845958 0.5132232 0.50345457 0.51235914
000180 92 71 02 3f 76 79 04 3f d8 43 04 3f 7f 47 00 3f
       0.50954545 0.51747835 0.5166602 0.50109094
000190 a5 31 fb 3e ac 32 00 3f 1e 6c 01 3f 4d 61 ff 3e
       0.49061313 0.5007732 0.505556 0.49878922
0001a0 dc 80 ff 3e d1 eb fc 3e be 41 fc 3e f4 8a fa 3e
       0.49903 0.49398664 0.49268907 0.48934138
0001b0 f9 91 f6 3e 60 b8 f5 3e 49 aa f7 3e 09 eb fb 3e
       0.48158243 0.4799223 0.48372105 0.49202755
0001c0 75 60 00 3f 45 ad f6 3e 73 2d f9 3e 58 7d f3 3e
       0.5014718 0.4817907 0.48667488 0.47556567
0001d0 69 c3 f0 3e d0 67 f0 3e 09 c3 f4 3e 7f e0 ee 3e
       0.47024086 0.46954203 0.4780505 0.46655652
0001e0 f7 e3 f4 3e 56 9e ed 3e d8 6b ec 3e 00 a7 e9 3e
       0.47830173 0.46409863 0.46176028 0.45635223
0001f0 d8 7e e2 3e 1a 95 d6 3e 08 4a a0 3e cb c8 87 3e
       0.442374 0.4191063 0.3130648 0.2652038
000200 77 bf c0 3e 95 0a cd 3e 99 2d e8 3e cb 17 e8 3e
       0.37646076 0.40047136 0.45347288 0.45330653
000210 78 40 f6 3e e6 0e ef 3e f0 59 ef 3e ef 0b f1 3e
       0.4809606 0.46691054 0.46748304 0.47079417
000220 4b 8b f4 3e 6f 4b f9 3e d9 e1 f5 3e 9d e4 f8 3e
       0.47762522 0.48690364 0.4802387 0.48611918
000230 c4 f8 fd 3e 71 39 00 3f d3 c9 f9 3e 60 6d 01 3f
       0.49603856 0.5008765 0.48786792 0.5055752
000240 79 28 fd 3e a4 fc 02 3f 72 f6 fd 3e 0a 61 01 3f
       0.4944494 0.5116675 0.49602085 0.50538695
000250 75 1d 02 3f f8 ee 01 3f 8b 72 03 3f 42 be 07 3f
       0.508262 0.5075526 0.51346654 0.53024685
000260 c9 03 01 3f 38 fd 03 3f 5f e1 03 3f 96 4d 04 3f
       0.503964 0.51558256 0.51515764 0.51680887
000270 b6 5f 06 3f 74 3e 06 3f 67 07 06 3f 36 59 02 3f
       0.52489793 0.52439046 0.52355045 0.50917375
000280 e3 19 02 3f eb ea 04 3f 62 59 05 3f a5 47 05 3f
       0.5082075 0.51920956 0.5208951 0.52062446
000290 d1 eb 03 3f cd a2 04 3f 41 7e 05 3f f2 0c 06 3f
       0.515317 0.51810914 0.52145773 0.523635
0002a0 5a 74 04 3f d2 d0 03 3f 33 73 03 3f e4 08 04 3f
       0.5174004 0.5149051 0.51347655 0.51576066
0002b0 a0 c1 02 3f 69 c3 02 3f d8 d6 ff 3e 11 a8 00 3f
       0.510767 0.5107942 0.499686 0.5025645
0002c0 6a 57 02 3f a3 f0 03 3f d4 61 01 3f f0 00 f8 3e
       0.50914633 0.5153906 0.505399 0.48438215
0002d0 f7 a3 00 3f 59 06 fd 3e 18 25 03 3f b1 d6 fb 3e
       0.5025019 0.49418905 0.51228476 0.49187234
0002e0 e1 3f f7 3e 35 46 f2 3e ce c4 f0 3e 90 0e f7 3e
       0.48290923 0.4731919 0.4702515 0.48253298
0002f0 7d 13 f0 3e a7 27 ea 3e 02 b4 b3 3e 86 e0 94 3e
       0.46889868 0.45733377 0.35098273 0.29077548
000300 12 6d ad 3e 64 43 ce 3e c1 b0 df 3e 35 0b e0 3e
       0.33872277 0.4028579 0.4368954 0.4375855
000310 a0 2c f0 3e e4 8e f1 3e 64 e2 f0 3e ae ac f1 3e
       0.46909046 0.4717933 0.47047722 0.47202057
000320 ca 07 f0 3e 79 28 f9 3e 66 88 f2 3e 43 be f3 3e
       0.46880943 0.4866369 0.4736969 0.47606096
000330 86 c2 f8 3e a8 f0 f6 3e e7 97 ef 3e 41 79 fc 3e
       0.4858591 0.4823048 0.4679558 0.4931126
000340 5e ae f3 3e 0f ca 01 3f 57 f5 f8 3e 47 e1 fb 3e
       0.4759397 0.5069894 0.4862468 0.4919531
000350 f6 19 fb 3e 68 41 00 3f 5a 33 05 3f 6e 22 00 3f
       0.49043244 0.500998 0.5203148 0.50052536
000360 f6 fb 02 3f 98 85 01 3f 8a ce 01 3f e6 04 03 3f
       0.5116571 0.5059447 0.5070578 0.5117935
000370 c9 75 03 3f 48 b6 01 3f c2 14 01 3f 2e f0 fd 3e
       0.513516 0.50668764 0.504223 0.49597305
000380 89 59 fc 3e 69 d0 ff 3e aa 6d 03 3f 16 6d 02 3f
       0.4928706 0.49963692 0.5133921 0.509477
000390 f1 36 02 3f b7 89 00 3f b2 4c fa 3e bb 3c 00 3f
       0.50865084 0.50210136 0.4888664 0.5009267
0003a0 4f c2 01 3f ad 1f fc 3e 85 ca 00 3f 6a 70 01 3f
       0.50687116 0.49242917 0.5030902 0.50562155
0003b0 e2 ab ff 3e ba 7d f4 3e 29 75 fb 3e 97 0d fb 3e
       0.49935824 0.47752172 0.49112824 0.49033806
0003c0 63 ba fb 3e f9 a1 f9 3e e4 9b f9 3e d9 20 f7 3e
       0.4916564 0.48756388 0.48751748 0.48267248
0003d0 0c c1 f1 3e f5 fa fc 3e 3e de f4 3e 10 3b fa 3e
       0.47217596 0.49410215 0.47825807 0.48873186
0003e0 3c 3d ef 3e b9 9c f5 3e 4b bb e9 3e 24 37 ed 3e
       0.46726406 0.47971132 0.45650706 0.4633113
0003f0 10 9b ef 3e 46 7e e4 3e 6f cb a6 3e 1a e2 8e 3e
       0.4679799 0.4462759 0.32577083 0.27906877
